sign-language-translator-master/signlanguage.onnx (onnx, 227312 bytes, 12 tensors)

conv1.weight f4 [6, 1, 3, 3]
-0.052674014 -0.26129556 0.155162 -0.4442639 0.13062812 -0.010695562 -0.14561488 0.019284328
0.36916414 -0.11946369 0.57774013 0.7728158 0.19200398 0.21960926 0.2121157 -0.31534672
-0.2814389 -0.6109253 0.3958651 -0.13727154 -0.0462342 0.24214637 0.22021838 0.37429047
-0.024238946 0.16169766 0.26265788 -0.5629289 -0.6182518 0.0017872562 0.07417741 -0.25461808
-0.6128837 -0.27620655 -0.13220528 -0.06906267 0.5889742 -1.6628261 -0.37950888 0.009712582
-0.9700309 0.67965996 0.37747687 0.27823573 1.0290946 0.22446829 -0.078159854 0.69008255
0.47671288 0.29610562 -0.062148713 -0.17142756 0.0003072595 0.03127109
00000000: b5c0 57bd 88c8 85be cae2 1e3e 8f76 e3be
00000010: 61c3 053e 703c 2fbc 111c 15be 2bfa 9d3c
00000020: 1503 bd3e 61a9 f4bd c7e6 133f 42d7 453f
00000030: b19c 443e 40e1 603e dc34 593e 2075 a1be
00000040: c218 90be 9a65 1cbf d5ae ca3e e990 0cbe
00000050: 1360 3dbd 38f5 773e ed80 613e 00a3 bf3e
00000060: c190 c6bc 1294 253e 187b 863e 1c1c 10bf
00000070: c045 1ebf 5e42 ea3a 53ea 973d 4d5d 82be
00000080: f2e5 1cbf f26a 8dbe d260 07be bb70 8dbd
00000090: 03c7 163f 7cd7 d4bf fd4e c2be 8621 1f3c
000000a0: f253 78bf 32fe 2d3f a644 c13e ea74 8e3e
000000b0: 5fb9 833f 04db 653e 4612 a0bd 40a9 303f
000000c0: b613 f43e 289b 973e a68f 7ebd b58a 2fbe
000000d0: ac17 a139 1d16 003d

conv1.bias f4 [6]
-0.34289876 0.246089 0.21763541 -0.55344516 -0.108428024 -0.9334489
00000000: 6d90 afbe c1fe 7b3e d1db 5e3e 95ae 0dbf
00000010: 830f debd 82f6 6ebf

conv2.weight f4 [6, 6, 3, 3]
0.07257976 0.13190632 0.13688773 0.08638901 -0.025234403 -0.085163556 0.07874993 0.022168128
0.036979854 -0.06415787 0.08575435 0.2273063 0.021176215 -0.057708587 0.19016379 0.09092027
0.04019087 0.0655968 -0.119651936 0.23636015 0.22312082 0.10779493 0.2967509 0.12333819
0.26839814 0.15956733 -0.017029934 0.23545562 0.06845433 -0.015689867 0.06217889 -0.099865854
-0.1366404 -0.17374986 -0.2587444 -0.14522123 -0.10473214 -0.28323227 -0.4008427 -0.23095901
-0.12993316 -0.24438392 -0.080530286 -0.22791259 0.03874616 0.049625136 0.037189055 0.039910246
-0.047788337 0.19433096 0.039462507 0.020458216 0.08732934 0.35927406 -0.028324824 -0.17046934
-0.19722107 -0.039914057 -0.04809526 0.0076708538 -0.03354535 -0.16926523 -0.1273283 -0.32902378
-0.37410027 -0.632486 0.23331818 -0.1839964 -0.56363523 0.41608986 0.1458222 -0.31384322
-0.18680316 -0.42803186 -0.7023249 0.4561891 0.18761449 -0.16681537 0.6488652 0.5761764
0.44029042 -0.014800176 0.27428833 0.49929065 -0.15300131 -0.09899308 0.16630985 -0.2621419
-0.23507944 -0.35858136 0.106162496 0.03803254 0.17414773 -0.2214964 0.0058522522 0.17518045
-0.20049776 -0.36676702 -0.22256066 -0.16055925 -0.05437649 -0.13205568 0.21325395 -0.09258992
-0.034856856 0.31485322 0.044401277 0.008052502 -0.03514571 -0.05652955 -0.11869739 -0.016098121
-0.110265836 0.080579355 0.08413704 -0.02798198 0.034607034 -0.22976178 -0.28959966 -0.3564008
0.22277436 0.025857707 -0.03167163 -0.0386708 0.21032989 0.15603545 -0.05402751 -0.13886058
-0.09216552 -0.072938465 0.07184105 0.22194816 -0.29660282 0.4086044 0.6444841 0.1531722
-0.21902944 -0.08956063 0.10559483 -0.08175085 -0.07297241 -0.01658675 0.038055334 -0.21211134
-0.041649688 0.1673131 -0.04716876 -0.20436507 -0.18339129 -0.06704381 0.14609782 0.092920005
0.0277216 -0.006929277 0.05048704 -0.18046558 0.019460121 0.18863125 0.012829269 -0.21539183
0.14652666 0.10481804 -0.24792382 -0.042572886 -0.093240544 0.004885194 -0.22864072 -0.12804966
-0.08346524 -0.18325807 0.01220697 -0.6921763 -0.78683114 -0.5708062 -0.1777088 -0.08868378
0.2772677 -0.005926447 0.5329147 0.5018293 -0.22555448 -0.3621637 -0.23898949 -0.24848561
0.026960026 0.271319 0.24698152 0.4093495 0.42246297 -0.11016157 0.010149197 0.06639735
-0.08530072 0.16918275 0.03734079 -0.23671488 -0.16470726 -0.11397977 0.20399866 0.7771375
0.51226467 0.4117417 0.07155867 -0.12858915 0.0069268188 -0.5909291 -0.42034003 -0.16515653
-0.35523123 -0.029556777 -0.22061697 -0.03930307 0.1554048 0.14122699 0.3144922 0.19030407
-0.024793433 0.16082877 0.18235129 -0.12129344 0.09379998 -0.00925059 0.080845736 -0.1263386
-0.019269587 -0.04756963 0.04285272 0.21101955 -0.28154436 0.13353193 0.30956325 -0.30549073
0.13035756 0.5817239 -0.34471047 0.3536776 0.6525805 -0.4591326 -0.15516965 0.51479536
-0.45661905 -0.2243537 0.31339014 0.18601793 -0.11126348 -0.29928276 0.17651576 -0.21168515
-0.19980338 0.32425588 0.071802534 -0.2824671 -0.47167617 -0.30822518 -0.1404576 -0.2660414
00000000: b2a4 943d 7312 073e 4c2c 0c3e b9ec b03d
00000010: 61b8 cebc 3b6a aebd a547 a13d ef99 b53c
00000020: 3078 173d 3465 83bd fa9f af3d fcc2 683e
00000030: be79 ad3c d75f 6cbd 4cba 423e 6834 ba3d
00000040: 2f9f 243d 9d57 863d 130c f5bd 6508 723e
00000050: c979 643e 97c3 dc3d bcef 973e bc98 fc3d
00000060: 7b6b 893e 9e65 233e 5c82 8bbc 471b 713e
00000070: c931 8c3d 0988 80bc 4baf 7e3d 7886 ccbd
00000080: 76eb 0bbe 7ceb 31be 257a 84be e0b4 14be
00000090: ce7d d6bd d203 91be 413b cdbe 8580 6cbe
000000a0: 330d 05be c73f 7abe 10ed a4bd eb61 69be
000000b0: 4bb4 1e3d ba43 4b3d 8d53 183d ed78 233d
000000c0: b4bd 43bd b2fe 463e 70a3 213d fd97 a73c
000000d0: bad9 b23d c5f2 b73e 7609 e8bc 848f 2ebe
000000e0: 52f4 49be ec7c 23bd 89ff 44bd c95b fb3b
000000f0: d966 09bd dd53 2dbe 5a62 02be ce75 a8be
00000100: 128a bfbe 9aea 21bf f6ea 6e3e 8d69 3cbe
00000110: 664a 10bf bb09 d53e 6a52 153e 0fb0 a0be
00000120: 5449 3fbe fe26 dbbe 91cb 33bf 9e91 e93e
00000130: 031e 403e a6d1 2abe 081c 263f 4c80 133f
00000140: bf6d e13e 707c 72bc 856f 8c3e 06a3 ff3e
00000150: 60ac 1cbe e2bc cabd 214d 2a3e 7737 86be
00000160: aab8 70be fa97 b7be b96b d93d 02c8 1b3d
00000170: c853 323e f4cf 62be 40c4 bf3b 8162 333e
00000180: 494f 4dbe e3c8 bbbe f1e6 63be a569 24be
00000190: e2b9 5ebd 9b39 07be 3e5f 5a3e c99f bdbd
000001a0: 10c6 0ebd 7134 a13e 1dde 353d a4ee 033c
000001b0: f3f4 0fbd 888b 67bd 9e17 f3bd 35e0 83bc
000001c0: 0ed3 e1bd ca06 a53d 0a50 ac3d 773a e5bc
000001d0: 1bc0 0d3d ac46 6bbe 6846 94be 2a7a b6be
000001e0: f61e 643e 8bd3 d33c 1cba 01bd 4665 1ebd
000001f0: b860 573e c2c7 1f3e f34b 5dbd 7831 0ebe
00000200: 47c1 bcbd c360 95bd 6721 933d 6146 633e
00000210: 53dc 97be 9934 d13e e9fc 243f 2cd9 1c3e
00000220: 4149 60be 906b b7bd 1a42 d83d fd6c a7bd
00000230: 8f72 95bd f0e0 87bc e9df 1b3d b733 59be
00000240: dd98 2abd 2054 2b3e 0834 41bd 1445 51be
00000250: edca 3bbe 444e 89bd ab9a 153e d84c be3d
00000260: 6918 e33c fd0e e3bb 80cb 4e3d f8cb 38be
00000270: d56a 9f3c 8d28 413e db31 523c ad8f 5cbe
00000280: 160b 163e d7aa d63d bedf 7dbe e860 2ebd
00000290: e6f4 bebd fa13 a03b cb20 6abe 731f 03be
000002a0: d3ef aabd 01a8 3bbe beff 473c 7732 31bf
000002b0: c46d 49bf 5b20 12bf 4cf9 35be d79f b5bd
000002c0: 08f6 8d3e a432 c2bb 196d 083f e377 003f
000002d0: c1f7 66be 856d b9be a9b9 74be 0373 7ebe
000002e0: 46db dc3c 53ea 8a3e b9e8 7c3e 4296 d13e
000002f0: 114d d83e 649c e1bd d148 263c 55fb 873d
00000300: 25b2 aebd 3e3e 2d3e a8f2 183d 6365 72be
00000310: 05a9 28be 3a6e e9bd 06e5 503e 7cf2 463f
00000320: c723 033f cfcf d23e 5a8d 923d e0ac 03be
00000330: 5efa e23b 2147 17bf cf36 d7be cb1e 29be
00000340: dee0 b5be 0e21 f2bc 6ae9 61be 42fc 20bd
00000350: 7022 1f3e cf9d 103e 1f05 a13e 12df 423e
00000360: 991b cbbc 4cb0 243e 4cba 3a3e b268 f8bd
00000370: 341a c03d c98f 17bc 7392 a53d e85e 01be
00000380: 41db 9dbc 5fd8 42bd 5586 2f3d 8215 583e
00000390: 9526 90be 98bc 083e 137f 9e3e 4869 9cbe
000003a0: 747c 053e dceb 143f e47d b0be 3b15 b53e
000003b0: 840f 273f 6e13 ebbe cbe4 1ebe a1c9 033f
000003c0: f9c9 e9be fabc 65be ac74 a03e 7c7b 3e3e
000003d0: 1bde e3bd 973b 99be 8cc0 343e fec3 58be
000003e0: 4299 4cbe de04 a63e 350d 933d 879f 90be
000003f0: 8a7f f1be b1cf 9dbe 1ed4 0fbe 9436 88be

conv2.bias f4 [6]
0.0041228253 0.39913177 0.08006122 -0.15738241 0.2819773 -0.24643464
00000000: c418 873b 005b cc3e 23f7 a33d db28 21be
00000010: 545f 903e 5d59 7cbe

conv3.weight f4 [16, 6, 3, 3]
-0.23899196 -0.3186306 -0.8057315 0.23660512 -0.20543085 -0.71669805 0.5909413 0.47222975
-0.3700064 0.25758576 0.21780235 -0.108660385 -0.060780495 0.17643869 -0.108092956 0.10866242
0.47870615 0.3035092 0.01681544 0.02171227 -0.3315423 0.028330147 -0.16650623 -0.3344405
0.31096542 0.27333066 -0.24592389 0.09819967 -0.06298974 0.053328287 -0.05260322 -0.3970205
-0.20541716 0.4522372 0.05509711 -0.23695643 0.05711761 -0.35789818 -0.30671245 0.07622135
-0.2346211 -0.047335524 0.36082268 -0.07980674 -0.39623505 -0.019066582 0.01903318 0.2169928
0.05122143 -0.06126645 0.010951537 -0.15299867 -0.09726955 -0.07800549 0.27304688 -0.10374383
-0.3933531 0.2846369 -0.3741976 -0.28907248 0.16782652 -0.5196001 -0.1369763 0.08293228
0.0480796 0.03277063 -0.034758147 -0.07282247 -0.03777836 -0.09001053 -0.0982154 -0.10256972
0.008691692 -0.034553573 -0.14295772 0.10515259 0.008282681 0.0027089799 -0.11593219 -0.2207302
0.053899325 -0.21070608 -0.1963834 0.282743 -0.2701047 -0.18820408 0.45288783 -0.32507816
-0.1501189 0.17525758 -0.08899754 0.013001563 -0.04451575 -0.09089768 -0.102635145 -0.034337603
-0.23665713 -0.11880713 0.0162263 -0.2779697 0.006062003 0.47471765 -0.26802245 -0.030180728
0.5668644 -0.5364182 0.07278431 0.4712831 -0.36258534 -0.13916688 0.6142454 0.029292932
-0.6155799 0.013843314 0.36648798 -0.11830558 -0.27118108 0.20754413 -0.37095475 -0.17995113
0.34674993 0.45859295 -0.21266973 -0.16990402 0.46162853 -0.066986494 -0.21496117 -0.1233933
0.33982852 0.16975339 -0.36183342 -0.27396995 0.29541704 0.07923115 -0.2781987 -0.20996451
-0.55890745 -0.45194614 0.04490634 0.08661063 -0.28114155 -0.15810928 0.073787436 -0.21364237
-0.42284974 0.64598775 0.8105172 -0.51694584 -0.3049465 0.6380183 -0.048418727 -0.8047496
0.094313584 0.025335561 -0.1546106 -0.12938952 -0.24270175 0.11237551 0.11689275 -0.24040006
-0.31994405 0.06136841 -0.69799876 -0.87271357 -0.8104456 -0.11045314 -0.13129136 0.008380904
0.30556768 0.9127676 0.8628152 -0.026134854 0.092694186 -0.17806092 0.13326412 0.44695693
0.43648538 -0.4111259 -0.1513853 0.22922713 -0.36072418 -0.23174848 -0.4416887 0.08908679
0.1656987 0.0032145053 0.123699956 0.19131519 0.39401528 0.16243468 -0.040719762 -0.28989226
0.11417414 0.35236338 0.14227538 -0.66323304 -0.35017613 -0.16580273 -0.4085682 -0.40768412
-0.21425584 -0.078072034 -0.0418338 -0.06309415 0.42497948 0.27608883 0.32421082 0.16792034
0.21802491 0.27449182 -0.116846204 -0.08145349 -0.0788433 -0.2278205 -0.18407884 -0.17549466
0.11777037 0.034982406 -0.43939498 0.25098723 0.25219586 -0.36998156 0.16157055 0.27282214
-0.510641 -0.016117774 0.44266662 -0.13130325 -0.112311825 0.04801748 -0.14927672 -0.2179842
-0.031165345 -0.33662257 -0.026946364 0.05492912 -0.13151015 0.13539626 0.15728863 -0.28490844
0.15159343 -0.12771656 -0.17025675 -0.26452255 -0.29197532 -0.046472173 -0.0667293 -0.27884057
-0.12061271 -0.09534747 -0.27690572 0.058728073 0.22004922 -0.44092324 0.286421 0.28133398
00000000: 4fba 74be 8d23 a3be 6b44 4ebf 9d48 723e
00000010: 775c 52be 8679 37bf ee47 173f 19c8 f13e
00000020: 7b71 bdbe 48e2 833e 9407 5f3e 5689 debd
00000030: f8f4 78bd 58ac 343e d75f ddbd 678a de3d
00000040: f918 f53e 8f65 9b3e 89c0 893c eedd b13c
00000050: eabf a9be a014 e83c 9c80 2abe c93b abbe
00000060: dc36 9f3e fff1 8b3e 79d3 7bbe e91c c93d
00000070: c400 81bd c36e 5a3d 7976 57bd 4546 cbbe
00000080: e058 52be a28b e73e 82ad 613d b5a4 72be
00000090: 28f4 693d 6e3e b7be 6a09 9dbe f019 9c3d
000000a0: 8340 70be e5e2 41bd c0bd b83e b771 a3bd
000000b0: 52df cabe 8531 9cbc 79eb 9b3c 5c33 5e3e
000000c0: 90cd 513d 87f2 7abd 136e 333c afab 1cbe
000000d0: 4235 c7bd 58c1 9fbd cdcc 8b3e a577 d4bd
000000e0: 9465 c9be eebb 913e d496 bfbe 4f01 94be
000000f0: b7da 2b3e 8304 05bf 8443 0cbe 66d8 a93d
00000100: 1def 443d 7f3a 063d 8f5e 0ebd f223 95bd
00000110: 7bbd 1abd 7157 b8bd 2825 c9bd 1310 d2bd
00000120: 9967 0e3c 0c88 0dbd 8263 12be 3e5a d73d
00000130: 15b4 073c 2489 313b db6d edbd 1907 62be
00000140: 8ac5 5c3d 56c3 57be bb18 49be b1c3 903e
00000150: 2a4b 8abe 92b8 40be eae0 e73e a570 a6be
00000160: c5b8 19be b976 333e 5844 b6bd 8204 553c
00000170: 2656 36bd 9028 babd 6032 d2bd 96a5 0cbd
00000180: 3f56 72be 2751 f3bd 04ed 843c 0b52 8ebe
00000190: c4a3 c63b 310e f33e 3d3a 89be 933d f7bc
000001a0: 061e 113f b452 09bf f10f 953d 054c f13e
000001b0: c9a4 b9be c381 0ebe 303f 1d3f bbf7 ef3c
000001c0: a596 1dbf 11cf 623c 50a4 bb3e 324a f2bd
000001d0: 3fd8 8abe 7386 543e c8ed bdbe 1c45 38be
000001e0: 3589 b13e b2cc ea3e 18c6 59be 52fb 2dbe
000001f0: 935a ec3e 3730 89bd c81e 5cbe a0b5 fcbd
00000200: 01fe ad3e d5d3 2d3e 3b42 b9be ca45 8cbe
00000210: e740 973e f143 a23d 0f70 8ebe f000 57be
00000220: 8f14 0fbf 7c65 e7be b6ef 373d ea60 b13d
00000230: c9f1 8fbe 66e7 21be de1d 973d 11c5 5abe
00000240: c37f d8be 745f 253f 0e7e 4f3f 9056 04bf
00000250: f321 9cbe 2b55 233f b752 46bd 1204 4ebf
00000260: 7b27 c13d 868c cf3c 3e52 1ebe b07e 04be
00000270: cf86 78be 2225 e63d 7765 ef3d 6f2b 76be
00000280: b5cf a3be 715d 7b3d 0cb0 32bf 286a 5fbf
00000290: 5d79 4fbf 4235 e2bd 3e71 06be 0f50 093c
000002a0: 5e73 9c3e 23ab 693f 75e1 5c3f c318 d6bc
000002b0: 73d6 bd3d 9a55 36be 6476 083e 8ad7 e43e
000002c0: 037b df3e 187f d2be c004 1bbe 84ba 6a3e
000002d0: d7b0 b8be 794f 6dbe 0525 e2be 2373 b63d
000002e0: ecac 293e 73aa 523b 6756 fd3d 21e8 433e
000002f0: 5fbc c93e 4755 263e c4c9 26bd c26c 94be
00000300: 22d4 e93d f968 b43e a3b0 113e a4c9 29bf
00000310: 494a b3be 31c8 29be da2f d1be f9bb d0be
00000320: e265 5bbe 3be4 9fbd eb59 2bbd 8137 81bd
00000330: e996 d93e 845b 8d3e f6fe a53e 4ff3 2b3e
00000340: ec41 5f3e 318a 8c3e 104d efbd 16d1 a6bd
00000350: 9978 a1bd c749 69be 2a7f 3cbe dfb4 33be
00000360: 9731 f13d b649 0f3d 61f8 e0be 6681 803e
00000370: d11f 813e 396e bdbe c072 253e 58af 8b3e
00000380: 5eb9 02bf 6c09 84bc 33a5 e23e 5c74 06be
00000390: be03 e6bd faad 443d ffdb 18be 4037 5fbe
000003a0: 774e ffbc cb59 acbe 9fbe dcbc 5bfd 603d
000003b0: 99aa 06be 51a5 0a3e 4510 213e 85df 91be
000003c0: 4f3b 1b3e 21c8 02be c957 2ebe 806f 87be
000003d0: ca7d 95be 9b59 3ebd 5fa9 88bd 31c4 8ebe
000003e0: cc03 f7bd 8945 c3bd 96c6 8dbe d98c 703d
000003f0: 9554 613e b1c0 e1be c6a5 923e 020b 903e

conv3.bias f4 [16]
0.23218128 -0.26206678 -0.21469338 -0.3805979 -0.10914993 0.17923415 -0.041559435 -0.18534088
-0.06536754 -0.08669945 0.102255896 -0.112168446 -0.20057602 -0.16936506 -0.0029610654 0.10352202
00000000: eec0 6d3e 9e2d 86be 95d8 5bbe badd c2be
00000010: 008a dfbd 2889 373e 3a3a 2abd 00ca 3dbe
00000020: 6bdf 85bd 7b8f b1bd 8a6b d13d 92b8 e5bd
00000030: cd63 4dbe 096e 2dbe 6f0e 42bb 5a03 d43d

fc1.weight f4 [120, 400]
0.21909788 0.011660349 -0.13481964 -0.15961164 -0.0169995 0.07230435 0.017025206 -0.019099563
-0.16313238 -0.009617638 0.0996817 0.03397925 -0.059678618 -0.2524767 -0.26633117 0.124781385
0.115802355 -0.0688497 -0.20521969 -0.09810434 0.07442402 0.2853082 0.06076492 0.09387337
0.075583644 0.028717693 0.0029956487 0.006640062 -0.08934607 -0.03175431 0.036549084 0.01014747
0.073505715 -0.16900384 -0.08983867 0.03007567 -0.04506397 -0.013501999 -0.096846834 -0.04756523
0.20336744 0.059151284 -0.053389993 -0.01757532 0.039967187 0.10923748 0.16660143 0.11165751
0.1865187 0.23562752 0.1709012 0.17923136 0.17327526 -0.013579822 0.11152612 0.14647664
-0.093926325 -0.009421359 -0.12480626 0.0062299166 0.16933559 0.19325836 0.015538543 -0.046993785
0.0072257235 0.14614807 0.033181854 -0.07483213 -0.053743504 -0.14063837 0.09297406 0.17399774
-0.07787977 -0.01554279 -0.15371989 -0.0112106055 -0.20600207 -0.22442466 -0.31058484 -0.17025504
-0.087373756 -0.076125816 -0.04253022 -0.21259598 -0.077441014 -0.106856406 -0.09949539 0.09377531
-0.028036634 -0.20987877 -0.06615485 0.08722226 0.1536793 0.062024623 0.10684736 0.11290509
0.15906353 0.13074765 0.14688013 -0.013801155 0.2863792 0.13773952 -0.18170863 -0.115255915
-0.010788961 0.10220405 -0.0027063948 -0.047173057 -0.13100605 -0.115485966 -0.08533718 0.04058536
-0.017111862 0.033127833 -0.19015379 0.04413053 0.13703957 0.010108223 -0.16240548 -0.12570095
0.18359728 0.25402796 0.024910143 -0.056059465 -0.057251163 -0.018043233 -0.15378346 -0.023799662
-0.044327248 -0.047630742 0.03920246 -0.048267152 0.01169592 -0.19973497 -0.14502117 -0.026608307
-0.025463762 -0.0061096894 -0.081564195 -0.124797195 -0.07660732 -0.15559357 -0.06618695 -0.109465875
-0.13090807 -0.046245612 -0.03867458 -0.02586912 -0.10981656 -0.15863991 0.15692413 0.23486923
0.1407018 -0.1432384 -0.042302594 0.14467758 0.0009155985 -0.075654514 -0.031811938 -0.07199648
-0.026851512 -0.006342243 -0.19960143 -0.14716955 0.08550283 -0.007383161 0.043279514 -0.23109685
-0.1718986 -0.059196085 0.065142944 0.013505243 -0.40800294 -0.044556495 0.03262431 0.19832993
0.035056923 -0.013433436 -0.14725891 -0.0892125 0.11715407 -0.0027059838 -0.089727476 -0.38194397
-0.19570284 -0.058910847 -0.11722715 -0.23392415 -0.17636414 -0.24389024 0.055158943 0.089942575
-0.04591681 -0.16716902 -0.1253235 0.20811974 0.34340668 0.12587802 0.06904683 0.15450895
-0.032334857 0.030611746 -0.03458786 0.021409137 -0.017529355 -0.034796737 -0.018413993 0.022162147
0.03333948 -0.0027675799 -0.011696996 -0.090287656 -0.024791839 -0.028534371 -0.04892337 0.017352026
-0.03932895 -0.09907139 -0.043585625 -0.10308482 -0.02071531 -0.038073067 -0.15590337 -0.028872665
0.007594648 0.07766897 -0.01507802 -0.09474292 -0.11011433 -0.012320475 -0.039482247 0.011442079
0.020561894 -0.0018271024 -0.0048445924 -0.038418546 -0.024940707 0.004456778 -0.040467028 0.015318158
0.0029755847 -0.03916379 0.03359371 0.06035936 -0.058715884 -0.07821458 0.024853613 -0.027503164
-0.09105477 -0.084885776 0.080432735 -0.049024954 0.07460085 0.07734862 -0.28606993 -0.011169973
00000000: 325b 603e 0c0b 3f3c 290e 0abe 3c71 23be
00000010: 8942 8bbc 4e14 943d 7278 8b3c b076 9cbc
00000020: 2d0c 27be 4c93 1dbc eb25 cc3d d32d 0b3d
00000030: 9171 74bd a044 81be 8f5c 88be 628d ff3d
00000040: c929 ed3d 1201 8dbd 1c25 52be eeea c8bd
00000050: 9f6b 983d eb13 923e a3e4 783d ae40 c03d
00000060: 99cb 9a3d 5e41 eb3c a552 443b e194 d93b
00000070: 13fb b6bd cf10 02bd 7eb4 153d 9341 263c
00000080: 2a8a 963d 580f 2dbe 56fd b7bd 4061 f63c
00000090: ff94 38bd 7d37 5dbc a257 c6bd c2d3 42bd
000000a0: 8e3f 503e 9e48 723d 77af 5abd 1efa 8fbc
000000b0: a2b4 233d e6b7 df3d 9199 2a3e b1ac e43d
000000c0: c2fe 3e3e 5748 713e b900 2f3e 6d88 373e
000000d0: 126f 313e e77d 5ebc ce67 e43d f9fd 153e
000000e0: 725c c0bd 0b5c 1abc 6d9a ffbd 5424 cc3b
000000f0: 4f66 2d3e 85e5 453e 6095 7e3c 8e7c 40bd
00000100: c3c5 ec3b d7a7 153e b2e9 073d 9641 99bd
00000110: 2622 5cbd 8103 10be 2f69 be3d 772c 323e
00000120: 6e7f 9fbd 30a7 7ebc bf68 1dbe b0ac 37bc
00000130: 35f2 52be 94cf 65be fa04 9fbe 5657 2ebe
00000140: 03f1 b2bd dae7 9bbd 2b34 2ebd c3b2 59be
00000150: 6599 9ebd 88d7 dabd 3dc4 cbbd 450d c03d
00000160: 15ad e5bc 76ea 56be 327c 87bd 96a1 b23d
00000170: 1b5e 1d3e 880d 7e3d cad2 da3d c93a e73d
00000180: 8de1 223e b6e2 053e bf67 163e 3d1e 62bc
00000190: 4ba0 923e 970b 0d3e d411 3abe 4b0b ecbd
000001a0: 2fc4 30bc 5b50 d13d c55d 31bb 8938 41bd
000001b0: 7326 06be e883 ecbd 42c5 aebd d63c 263d
000001c0: 2d2e 8cbc 0db1 073d adb7 42be 37c2 343d
000001d0: 1a54 0c3e f69c 253c 9f4d 26be c0b7 00be
000001e0: ed00 3c3e f40f 823e 5b10 cc3c 9c9e 65bd
000001f0: 3280 6abd 67cf 93bc 6979 1dbe 82f7 c2bc
00000200: 7d90 35bd 7418 43bd c292 203d c7b3 45bd
00000210: 3ea0 3f3c 5387 4cbe 6e80 14be aaf9 d9bc
00000220: 6199 d0bc ca33 c8bb 210b a7bd ac95 ffbd
00000230: 4ce4 9cbd ec53 1fbe 068d 87bd a52f e0bd
00000240: c40c 06be 0a6c 3dbd 3d69 1ebd 7aeb d3bc
00000250: 81e7 e0bd 8072 22be b8b0 203e 8f81 703e
00000260: 2214 103e 16ad 12be 7c45 2dbd 5c26 143e
00000270: c604 703a c1f0 9abd 3c4d 02bd e472 93bd
00000280: b4f7 dbbc 97d2 cfbb 5164 4cbe 9db3 16be
00000290: 1c1c af3d 72ee f1bb dc45 313d a7a4 6cbe
000002a0: 3006 30be 9877 72bd aa69 853d 1845 5d3c
000002b0: c3e5 d0be df80 36bd 12a1 053d 0017 4b3e
000002c0: d997 0f3d ea17 5cbc 0acb 16be 0bb5 b6bd
000002d0: 79ee ef3d e056 31bb 0ac3 b7bd 298e c3be
000002e0: 5366 48be 804c 71bd ca14 f0bd d089 6fbe
000002f0: cd98 34be 5dbe 79be 58ee 613d d033 b83d
00000300: 4413 3cbd 5b2e 2bbe ce54 00be 571d 553e
00000310: 00d3 af3e 2be6 003e 6d68 8d3d 9837 1e3e
00000320: 8e71 04bd 7cc5 fa3c 00ac 0dbd 3762 af3c
00000330: b999 8fbc 0687 0ebd f1d8 96bc 648d b53c
00000340: fb8e 083d 4960 35bb c2a4 3fbc bce8 b8bd
00000350: 4118 cbbc eac0 e9bc df63 48bd d625 8e3c
00000360: 6517 21bd f1e5 cabd d786 32bd 221e d3bd
00000370: 27b3 a9bc 81f2 1bbd 22a5 1fbe 5e86 ecbc
00000380: 86dc f83b e910 9f3d cd09 77bc 9308 c2bd
00000390: 9f83 e1bd d1db 49bc 23b8 21bd 8f77 3b3c
000003a0: 6b71 a83c 627b efba 63bf 9ebb c45c 1dbd
000003b0: 7450 ccbc 2a0a 923b c1c0 25bd 03f9 7a3c
000003c0: 0702 433b 366a 20bd 8f99 093d 603b 773d
000003d0: 1180 70bd f72e a0bd ce99 cb3c 514e e1bc
000003e0: ec7a babd 98d8 adbd ebb9 a43d 64ce 48bd
000003f0: 55c8 983d f468 9e3d c277 92be 4302 37bc

fc1.bias f4 [120]
0.093820736 0.022589598 -0.031014135 0.09812712 -0.0137683 0.04442115 -0.035471343 0.06258922
-0.033690233 0.0021429928 0.027259989 -0.0449772 -0.006811475 -0.051799726 0.017867465 -0.008840307
0.050193876 0.21236551 0.0366812 -0.0071434076 0.10758171 0.039167468 0.06528039 0.0061336607
0.033046108 -0.026013225 -0.01720937 0.019943578 0.01085614 0.115156546 0.019442864 0.020849602
0.017616866 -0.04676258 0.013730932 -0.038889244 0.18125784 -0.072990954 -0.040024236 -0.019073643
-0.0017868011 0.04458267 -0.014392509 -0.03253349 0.025126966 0.08269445 -0.058385324 -0.05761584
-0.013176836 0.08615049 0.058417276 -0.088666745 0.061103046 0.08269302 0.016565403 0.15335867
0.0039642146 -0.033422977 0.05813167 -0.023928735 -0.047702 0.019344563 0.03691148 0.03714879
0.045396525 -0.07964524 0.0038939628 0.014130733 0.007863869 -0.0139287375 0.11811948 -0.10240708
-0.09093075 -0.04575793 0.12937734 0.0058252076 -0.015117898 -0.04318107 0.018413002 -0.02907652
0.025593476 -0.0076102326 -0.08240757 0.027443752 -0.006637293 0.006104339 -0.10162977 0.01852593
0.04922749 -0.0369351 0.044444814 -0.04934089 0.00488432 0.057643026 0.006969571 0.091545805
0.008269949 -0.008086973 -0.016357685 -0.14517757 0.05757393 -0.044375498 0.052940484 -0.007849493
-0.045262083 0.08298816 -0.0060453676 -0.021234723 -0.066737615 -0.015198731 -0.006558588 0.007619302
-0.03739447 0.013856062 0.05353464 -0.001814274 0.09261327 0.048684325 0.08835644 0.12253977
00000000: 1625 c03d d20d b93c 5b11 febc dff6 c83d
00000010: 7094 61bc f4f2 353d 664a 11bd c72e 803d
00000020: c5fe 09bd 7471 0c3b 5750 df3c 033a 38bd
00000030: cb32 dfbb f32b 54bd ca5e 923c efd6 10bc
00000040: 1898 4d3d 5876 593e 073f 163d 3f13 eabb
00000050: cd53 dc3d 116e 203d bab1 853d e0fc c83b
00000060: 5b5b 073d b019 d5bc aafa 8cbc b760 a33c
00000070: f4dd 313c 32d7 eb3d a446 9f3c c9cc aa3c
00000080: 3f51 903c 1e8a 3fbd b4f7 603c 544a 1fbd
00000090: a89b 393e 487c 95bd 74f0 23bd 5440 9cbc
000000a0: 1933 eaba 519c 363d 8fce 6bbc d641 05bd
000000b0: 11d7 cd3c b55b a93d 7325 6fbd 96fe 6bbd
000000c0: a8e3 57bc ab6f b03d f446 6f3d e996 b5bd
000000d0: 3047 7a3d f55a a93d 2bb4 873c 0e0a 1d3e
000000e0: 3ee6 813b 88e6 08bd 791b 6e3d 3206 c4bc
000000f0: 2c63 43bd 7d78 9e3c 7e30 173d 5429 183d
00000100: b5f1 393d 0b1d a3bd db31 7f3b 9784 673c
00000110: 75d7 003c 5c35 64bc a0e8 f13d ceba d1bd
00000120: e739 babd ab6c 3bbd 7e7b 043e 62e1 be3b
00000130: 0fb1 77bc a2de 30bd ddd6 963c e231 eebc
00000140: 69a9 d13c 425f f9bb 4dc5 a8bd b8d1 e03c
00000150: a67d d9bb e806 c83b 4523 d0bd b1c3 973c
00000160: c4a2 493d 4249 17bd c40b 363d ac19 4abd
00000170: a50c a03b 181b 6c3d 0061 e43b 5e7c bb3d
00000180: ae7e 073c 397f 04bc 8d00 86bc 6ea9 14be
00000190: a4d2 6b3d 15c3 35bd 1fd8 583d 299b 00bc
000001a0: bc64 39bd b2f5 a93d 3818 c6bb 71f4 adbc
000001b0: bbad 88bd 1904 79bc 6ce9 d6bb 56ab f93b
000001c0: f22a 19bd 8904 633c 2447 5b3d efcc edba
000001d0: 07ac bd3d 3769 473d 39f4 b43d 22f6 fa3d

fc2.weight f4 [48, 120]
-0.074795395 0.03734758 0.04045762 -0.185451 0.064102516 0.022758082 -0.07116824 -0.091538906
-0.07479855 0.0496108 0.05620177 -0.06739857 -0.11339739 -0.12202459 0.08261027 -0.06591307
-0.065432236 -0.18088062 -0.008507399 0.01872274 -0.111136585 0.0909797 -0.103824265 -0.20967951
0.26901048 0.16535099 -0.10771636 0.10271245 0.03971932 0.020520004 0.017968519 -0.14234827
0.073028035 -0.12271187 -0.019281691 0.032308336 -0.17835718 0.009981617 0.1274117 0.17821689
0.012537649 0.08695196 0.15811649 -0.004775899 0.20756601 -0.04442794 -0.043779314 0.013416924
0.036156923 -0.10905664 0.15596402 -0.16329145 0.030536482 0.034635823 0.03141409 -0.07806354
0.12856625 0.01587003 -0.00560126 0.09882149 -0.034883413 -0.08203159 -0.0969057 0.04130206
-0.14373703 0.17195374 -0.09885733 0.026080037 0.07445866 0.08698227 0.16190362 0.22320162
-0.092303544 -0.0749065 0.06519049 -0.054150406 -0.03730091 -0.015617948 -0.11841557 0.114438005
-0.12133105 0.04983611 0.09108494 -0.13936593 0.055648185 -0.04852899 0.025306335 0.0801598
0.0975977 -0.21146992 -0.04178464 0.049355883 -0.07784534 0.074849404 -0.07198297 0.0005677545
0.058663785 -0.026292069 -0.079050936 -0.18395267 0.21941069 0.06636733 0.010121227 -0.07194981
0.07367055 0.002624639 -0.18602863 -0.060094815 -0.09135762 -0.049080312 -0.22711149 0.1707046
0.052291546 -0.12399362 0.014795667 -0.106271364 0.127428 0.046091415 0.05949003 0.08203625
-0.27648234 0.04602977 -0.17074333 -0.082876414 0.015138012 -0.06621533 0.05553605 -0.006584413
-0.05813896 0.26014018 -0.084709935 0.08840049 0.1671663 0.036887456 -0.10578799 -0.15440516
0.040208425 -0.022330035 0.15696225 0.11394796 -0.03712204 -0.055458322 -0.035434864 -0.2613219
-0.11553679 0.2371411 0.05745061 -0.04605447 0.12106621 -0.3839687 0.1243094 -0.008871142
-0.13851911 -0.017888686 -0.34977064 -0.099617094 -0.35883158 0.018078584 0.18710975 0.16803169
-0.102424726 -0.052884817 -0.13624263 0.20932235 0.08042843 -0.266721 0.07440345 -0.101360515
-0.06435288 -0.14426194 -0.16742207 -0.020289171 -0.057551295 -0.22806042 0.18048348 -0.08933531
-0.009939757 0.031276427 -0.025605474 0.12983339 0.09544727 -0.13052154 0.2813544 0.07613226
-0.05697981 0.12209358 0.2124961 0.040244572 -0.06323949 -0.1808593 0.2785961 -0.009457684
0.06662719 0.035462413 -0.09572746 0.0018270736 0.011374708 0.15064555 -0.13356586 -0.20114462
-0.12539452 -0.001942953 0.015437613 -0.27029768 -0.03833839 -0.13714573 0.3556901 -0.02299442
-0.20212165 0.28472838 -0.190048 -0.029914549 0.27147296 0.017765792 -0.083719894 0.11496334
-0.03197595 0.08026953 -0.05079426 0.052616935 -0.10479319 0.103604935 -0.25450888 0.011787033
0.07512037 0.06406846 -0.13495119 0.11842903 0.1126771 0.1994803 -0.18665768 0.06979005
0.023221571 -0.0007146914 -0.13492833 0.052144866 0.40881783 -0.123936795 -0.119964354 0.09422904
-0.31744644 0.07584884 -0.012236314 0.10008284 0.09766662 -0.14686711 -0.26531675 -0.1058928
-0.047058214 -0.17814425 -0.057201467 0.05842775 -0.060508568 -0.19746347 -0.08668509 -0.07042419
00000000: 542e 99bd c7f9 183d e4b6 253d dee6 3dbe
00000010: 2e48 833d 286f ba3c a7c0 91bd c078 bbbd
00000020: fb2f 99bd b234 4b3d d433 663d 4308 8abd
00000030: e43c e8bd 07e8 f9bd 932f a93d 6ffd 86bd
00000040: 5601 86bd c538 39be 9e62 0bbc 6e60 993c
00000050: 949b e3bd 9153 ba3d d1a1 d4bd 3ab6 56be
00000060: bebb 893e c551 293e 659a dcbd e85a d23d
00000070: bab0 223d 9119 a83c b732 933c bfc3 11be
00000080: b98f 953d 5c50 fbbd a3f4 9dbc bf55 043d
00000090: 44a3 36be f089 233c 3678 023e 7d7e 363e
000000a0: b66a 4d3c df13 b23d 4ae9 213e 257f 9cbb
000000b0: 2f8c 543e 12fa 35bd f051 33bd a8d2 5b3c
000000c0: 4819 143d 1659 dfbd 08b5 1f3e e035 27be
000000d0: a527 fa3c 4bde 0d3d 10ac 003d c7df 9fbd
000000e0: dfa6 033e dd01 823c c68a b7bb ec62 ca3d
000000f0: e9e1 0ebd 2e00 a8bd 7f76 c6bd 592c 293d
00000100: cd2f 13be a414 303e b675 cabd cda5 d53c
00000110: c87d 983d c323 b23d 10ca 253e f78e 643e
00000120: a409 bdbd 9468 99bd 9782 853d d1cc 5dbd
00000130: d7c8 18bd 6ce2 7fbc dd83 f2bd 795e ea3d
00000140: 6a7c f8bd f320 4c3d be8a ba3d f1b5 0ebe
00000150: 5aef 633d 56c6 46bd 3b4f cf3c d22a a43d
00000160: 4ee1 c73d 928b 58be 5f26 2bbd 6529 4a3d
00000170: 616d 9fbd a54a 993d cf6b 93bd 5cd5 143a
00000180: 7049 703d 7762 d7bc 75e5 a1bd 175e 3cbe
00000190: 32ad 603e 98eb 873d 81d3 253c 6c5a 93bd
000001a0: 96e0 963d 2302 2c3b 4a7e 3ebe fb25 76bd
000001b0: b419 bbbd 7008 49bd ea8f 68be 30cd 2e3e
000001c0: a92f 563d 5ef0 fdbd 8669 723c cda4 d9bd
000001d0: 7c7c 023e 5aca 3c3d d1ab 733d 9f02 a83d
000001e0: 188f 8dbe b689 3c3d 57d7 2ebe 1cbb a9bd
000001f0: 6d05 783c e79b 87bd c579 633d 0fc2 d7bb
00000200: 1e23 6ebd 1831 853e 677c adbd 510b b53d
00000210: a42d 2b3e 4d17 173d 60a7 d8bd 631c 1ebe
00000220: 97b1 243d 7aed b6bc b6ba 203e 8c5d e93d
00000230: 480d 18bd 4428 63bd 2624 11bd fccb 85be
00000240: 8d9e ecbd 1ed5 723e 5551 6b3d 9da3 3cbd
00000250: 90f1 f73d 8c97 c4be ed95 fe3d 4458 11bc
00000260: f4d7 0dbe 4b8b 92bc 2315 b3be 0c04 ccbd
00000270: c6b8 b7be 8a19 943c b399 3f3e 8010 2c3e
00000280: 0ec4 d1bd c09d 58bd 3083 0bbe 9958 563e
00000290: a9b7 a43d a88f 88be d660 983d 1a96 cfbd
000002a0: 71cb 83bd 67b9 13be b170 2bbe 7a35 a6bc
000002b0: e8ba 6bbd ac88 69be a9d0 383e 6ef5 b6bd
000002c0: 5dda 22bc b61b 003d 92c2 d1bc 0bf3 043e
000002d0: dc79 c33d 70a7 05be af0d 903e 3beb 9b3d
000002e0: a963 69bd 330c fa3d 9498 593e 7ed7 243d
000002f0: b583 81bd 2e33 39be 26a4 8e3e 67f4 1abc
00000300: d673 883d 0941 113d c20c c4bd 6b7a ef3a
00000310: fc5c 3a3c d442 1a3e 7dc5 08be dbf8 4dbe
00000320: 6c67 00be afaa feba 0bee 7c3c 7564 8abe
00000330: b708 1dbd ee6f 0cbe 031d b63e cb5e bcbc
00000340: faf8 4ebe ebc7 913e f19b 42be 5b0f f5bc
00000350: 81fe 8a3e 9189 913c 5675 abbd e671 eb3d
00000360: 37f9 02bd 5a64 a43d a40d 50bd db84 573d
00000370: d09d d6bd d32e d43d fd4e 82be 661e 413c
00000380: b5d8 993d 5336 833d a530 0abe eb8a f23d
00000390: 40c3 e63d 9044 4c3e 3123 3fbe 16ee 8e3d
000003a0: 2a3b be3c 215a 3bba a72a 0abe db95 553d
000003b0: 9250 d13e 93d2 fdbd dfaf f5bd 28fb c03d
000003c0: 5788 a2be a356 9b3d d27a 48bc 3bf8 cc3d
000003d0: 7005 c83d 5564 16be 99d7 87be 53de d8bd
000003e0: 1dc0 40bd 726b 36be 164c 6abd f051 6f3d
000003f0: d5d7 77bd dd33 4abe f487 b1bd 8f3a 90bd

fc2.bias f4 [48]
0.06749672 -0.18514124 0.0051563 0.040775165 0.043463424 0.2520775 -0.04739493 -0.01785242
-0.061566312 0.10623086 -0.023586705 0.17542362 0.061585415 0.13014637 -0.1337438 0.045658417
-0.020167163 -0.11773184 0.07939297 0.0075528543 -0.017137503 0.17907776 0.19749676 0.20787926
-0.093734175 0.021208525 0.033380363 0.13912392 0.13119805 0.026564864 0.19223781 0.23768894
-0.019799288 0.079065435 -0.100628555 -0.08862886 -0.066483065 0.36522466 0.0320735 -0.10667822
-0.008708045 0.21178527 0.051516484 -0.095805995 -0.06569336 -0.018724544 0.1186642 -0.09562897
00000000: b83b 8a3d aa95 3dbe 2ef6 a83b dc03 273d
00000010: b406 323d 4d10 813e 3021 42bd 3d3f 92bc
00000020: f52c 7cbd 918f d93d e838 c1bc 40a2 333e
00000030: fd40 7c3d 1745 053e 22f4 08be 5204 3b3d
00000040: 9b35 a5bc 641d f1bd c898 a23d ef7d f73b
00000050: f363 8cbc 2960 373e 973c 4a3e 4dde 543e
00000060: b4f7 bfbd 80bd ad3c d9b9 083d 8076 0e3e
00000070: c858 063e 8f9e d93c fdd9 443e bb64 733e
00000080: 1e32 a2bc 0fed a13d 5816 cebd 0c83 b5bd
00000090: 4628 88bd bafe ba3e 815f 033d 1c7a dabd
000000a0: 30ac 0ebc 3dde 583e f302 533d ef35 c4bd
000000b0: 3e8a 86bd 3764 99bc 3706 f33d 1fd9 c3bd

fc3.weight f4 [24, 48]
-0.0021094754 -0.2661377 -0.046841383 0.19136153 -0.26161042 0.2781045 -0.33085057 -0.07024376
0.042142414 0.11124161 -0.3076643 0.1388224 -3.394712e-05 -0.32790038 0.46807048 0.64770335
-0.15795344 -0.30879903 0.3711864 -0.14880985 0.03724337 -0.14640863 -0.32924646 -0.21560226
0.21814239 -0.042184632 0.44871503 -0.034969058 0.06935941 -0.19374233 0.19100638 -0.17660601
-0.22091313 -0.23445529 -0.17527848 -0.06505385 0.020773072 -0.31008846 -0.0439175 0.21431245
-0.08529813 0.002749375 0.43845502 -0.072677 0.038845398 0.10059349 -0.07618096 -0.064535804
-0.13644879 -0.04470802 -0.07157573 0.2989756 -0.15222019 0.056337155 -0.2059499 0.04320192
-0.016747786 -0.13928357 0.36707574 -0.15100689 0.042023677 0.4046196 -0.101207145 -0.10450507
-0.2284447 -0.2634263 -0.2778525 -0.15890239 -0.16740602 0.09640651 -0.44765833 0.24277386
0.060086243 -0.13920395 -0.29265073 0.58230907 -0.034848973 -0.22163357 -0.03228252 0.19444028
-0.074622914 -0.35124767 0.066097535 -0.05007234 -0.025977086 0.2382456 -0.13545477 0.08541725
-0.13379359 -0.20559484 -0.18637003 0.12420168 -0.14389192 0.45692238 0.21448107 -0.051456984
0.015309531 -0.07071269 0.07327461 -0.06825956 0.21685766 -0.15612665 0.12998103 0.4093784
0.00096538814 -0.22413844 0.07419244 0.020392386 -0.20262305 -0.22144322 0.16068985 0.46082482
0.10958994 0.080096185 -0.13084927 0.13162729 0.03401686 -0.1775915 -0.40911546 -0.36255375
-0.079663545 0.100602254 0.0036648025 0.07044392 0.07882835 0.20419791 -0.18310589 -0.1275874
0.9234829 -0.24901628 -0.018451331 0.05442555 0.17333221 -0.25472602 -0.2396251 -0.09052239
-0.11290318 -0.3460634 -0.23886548 -0.0015432788 -0.2077184 0.19501983 -0.24656281 -0.011111052
-0.097723894 -0.18041688 -0.067522086 -0.119590946 -0.08612722 0.16558637 0.27209777 0.084053434
-0.12254885 -0.18784425 -0.4736894 -0.21516089 -0.024446845 0.21350838 -0.053611137 -0.08349903
-0.17884608 0.043679766 -0.2014852 0.26564142 -0.12338199 -0.28906235 0.20739019 -0.12396114
0.07217125 -0.05789941 0.23007059 0.46571815 0.45833483 0.3230193 -0.2965067 0.42983818
-0.4313117 0.6081625 0.13208918 -0.06317257 0.09942004 0.23952657 -0.02034822 0.010045425
0.02341636 -0.11865002 0.19159508 -0.057585552 0.16964419 0.06257434 -0.51257086 -0.19338432
0.03746469 0.2528268 0.33999333 -0.07955959 -0.2880052 0.38997868 -0.41585702 -0.099807605
-0.018298285 0.28683865 -0.18159819 -0.19239396 -0.004063169 -0.15398008 0.74685794 0.21456201
-0.2802427 0.23109776 -0.044144955 0.2216576 -0.10825497 -0.044072043 -0.19606724 0.044820417
-0.16319768 0.5024315 -0.25580353 0.6833009 -0.23337533 -0.14251427 -0.35063082 0.25227225
-0.19766153 0.028406233 -0.056952775 0.036775827 -0.022351049 -0.12365158 0.17907432 0.18104468
-0.1294729 -0.042897884 -0.18155815 -0.11334129 -0.13337485 0.0515252 0.11540607 0.117257945
-0.13410929 -0.03851517 -0.12446518 -0.13198552 0.09977909 -0.24274471 0.53465605 0.07247566
-0.08855699 0.28300896 -0.02662301 0.020360252 0.21410327 -0.14916432 0.14196119 0.07890312
00000000: 203f 0abb 3343 88be c0dc 3fbd 47f4 433e
00000010: cdf1 85be b763 8e3e 3f65 a9be f6db 8fbd
00000020: 869d 2c3d a4d2 e33d 2d86 9dbe 7627 0e3e
00000030: 7162 0eb8 8fe2 a7be efa6 ef3e e3cf 253f
00000040: 8cbe 21be e81a 9ebe 250c be3e 9c61 18be
00000050: 818c 183d 25ec 15be fe92 a8be d7c6 5cbe
00000060: b860 5f3e cbc9 2cbd fabd e53e b73b 0fbd
00000070: 4e0c 8e3d 6464 46be 2d97 433e 35d8 34be
00000080: 0d37 62be 0c15 70be 347c 33be f43a 85bd
00000090: 4a2c aa3c eac3 9ebe d6e2 33bd b974 5b3e
000000a0: c9b0 aebd dc2e 343b 2d7d e03e aed7 94bd
000000b0: 5a1c 1f3d f603 ce3d c304 9cbd 592b 84bd
000000c0: 3bb9 0bbe c21f 37bd 4c96 92bd 5413 993e
000000d0: 9cdf 1bbe cac1 663d 88e4 52be 7ff4 303d
000000e0: a732 89bc 5aa0 0ebe 5af1 bb3e 8da1 1abe
000000f0: 0521 2c3d 4d2a cf3e b145 cfbd c106 d6bd
00000100: 68ed 69be d0df 86be af42 8ebe 4fb7 22be
00000110: 7c6c 2bbe c770 c53d 7933 e5be b699 783e
00000120: fe1c 763d 7b8b 0ebe 51d6 95be 3512 153f
00000130: ccbd 0ebd e9f3 62be ad3a 04bd 5a1b 473e
00000140: e6d3 98bd bcd6 b3be 255e 873d a718 4dbd
00000150: e6cd d4bc a8f6 733e a8b4 0abe 3def ae3d
00000160: 3001 09be 7487 52be c9d7 3ebe 735d fe3d
00000170: 6758 13be bbf1 e93e eda0 5b3e 8fc4 52bd
00000180: d4d4 7a3c d1d1 90bd 0011 963d abcb 8bbd
00000190: ef0f 5e3e aadf 1fbe bf19 053e 0c9a d13e
000001a0: 1a12 7d3a 8c84 65be 35f2 973d ef0d a73c
000001b0: 6b7c 4fbe 03c2 62be e18b 243e 3bf1 eb3e
000001c0: b170 e03d 7809 a43d 5afd 05be 4ec9 063e
000001d0: 4355 0b3d 8cda 35be 9577 d1be a5a0 b9be
000001e0: a426 a3bd 8e08 ce3d 2f2d 703b e744 903d
000001f0: c270 a13d 4219 513e 1c80 3bbe 45a6 02be
00000200: 6069 6c3f 20fe 7ebe 3f27 97bc 53ed 5e3d
00000210: 007e 313e 736b 82be 4860 75be ce63 b9bd
00000220: c839 e7bd 392f b1be 2799 74be d847 caba
00000230: 22b4 54be 47b3 473e f67a 7cbe 210b 36bc
00000240: 7723 c8bd 34bf 38be 0549 8abd 19ec f4bd
00000250: 7863 b0bd 798f 293e 6650 8b3e 3524 ac3d
00000260: e4fa fabd 3e5a 40be 6b87 f2be 2353 5cbe
00000270: c044 c8bc f1a1 5a3e 5a97 5bbd 8a01 abbd
00000280: 6d23 37be 8ee9 323d 2352 4ebe 2702 883e
00000290: b2af fcbd fbff 93be 185e 543e 57df fdbd
000002a0: 85ce 933d ef27 6dbd a097 6b3e 9c72 ee3e
000002b0: ddaa ea3e c962 a53e bacf 97be c013 dc3e
000002c0: e3d4 dcbe 8ab0 1b3f 6342 073e 9f60 81bd
000002d0: bc9c cb3d 7446 753e 4fb1 a6bc 9195 243c
000002e0: abd3 bf3c c8fe f2bd 8031 443e d4de 6bbd
000002f0: 35b7 2d3e fa26 803d d837 03bf 8a06 46be
00000300: 9374 193d 8472 813e 9b13 ae3e 23f0 a2bd
00000310: 6b75 93be 49ab c73e 36eb d4be ee67 ccbd
00000320: 49e6 95bc 84dc 923e e0f4 39be ec02 45be
00000330: 5524 85bb f4ac 1dbe 1532 3f3f 25b6 5b3e
00000340: f97b 8fbe e4a4 6c3e 57d1 34bd 36fa 623e
00000350: c8b4 ddbd e384 34bd dac5 48be 9d95 373d
00000360: 4b1d 27be 5a9f 003f aef8 82be cfec 2e3f
00000370: f1f9 6ebe 43ef 11be e285 b3be d429 813e
00000380: c967 4abe 30b4 e83c 5047 69bd 40a2 163d
00000390: 8c19 b7bc 0a3d fdbd 425f 373e c763 393e
000003a0: 8b94 04be b1b5 2fbd 61ea 39be 7a1f e8bd
000003b0: 6b93 08be 170c 533d 055a ec3d ef24 f03d
000003c0: f253 09be 15c2 1dbd 9ae7 febd 3627 07be
000003d0: fb58 cc3d 1292 78be 38df 083f 1e6e 943d
000003e0: 5e5d b5bd 8de6 903e 8018 dabc 8bca a63c
000003f0: e33d 5b3e 88be 18be 465e 113e f597 a13d

fc3.bias f4 [24]
-0.11545666 0.12502415 -0.063329145 0.061192434 -0.15606816 0.013361188 -0.19148447 0.09403147
0.22724313 -0.24832484 0.06314873 0.08801425 0.22095671 -0.27626657 0.38542867 -0.0880834
0.05735466 -0.1290603 0.0046639824 0.08837077 0.115882315 0.26099378 -0.07693701 -0.13504903
00000000: 8b74 ecbd 5506 003e b6b2 81bd eba4 7a3d
00000010: 55d0 1fbe e2e8 5a3c 8114 44be 9293 c03d
00000020: 6cb2 683e de48 7ebe 1f54 813d d140 b43d
00000030: 7a42 623e d072 8dbe e856 c53e 1265 b4bd
00000040: b8ec 6a3d 6228 04be 52d4 983b bcfb b43d
00000050: b553 ed3d faa0 853e 2791 9dbd 4b4a 0abe
